…
12 Apr 02:39    INFO
====Testing====
clothing
The number of users: 39387
Average actions of users: 1.0457511361616778
The number of items: 16803
Average actions of items: 2.451288460393977
The number of inters: 41189
The sparsity of the dataset: 99.99377640221293%
12 Apr 02:39    INFO
=================================
12 Apr 02:39    INFO =========1/1: Parameters:['seed', 'reg_weight', 'learning_rate', 'dropout', 'mask_weight_f', 'mask_weight_g', 'align_weight', 'temp']=(999, 0.001, 0.0001, 0.5, 1.5, 0.0001, 0.1, 0.2)=======
12 Apr 02:39    INFO SEA(
  (t_proj): ProjectHead(
    (head): Sequential(
      (0): Linear(in_features=192, out_features=64, bias=True)
      (1): BatchNorm1d(64, eps=1e-05, momentum=0.1, affine=True, track_running_stats=True)
      (2): ReLU(inplace=True)
      (3): Linear(in_features=64, out_features=64, bias=True)
      (4): BatchNorm1d(64, eps=1e-05, momentum=0.1, affine=True, track_running_stats=True)
      (5): ReLU(inplace=True)
      (6): Linear(in_features=64, out_features=32, bias=True)
    )
  )
  (v_proj): ProjectHead(
    (head): Sequential(
      (0): Linear(in_features=2048, out_features=64, bias=True)
      (1): BatchNorm1d(64, eps=1e-05, momentum=0.1, affine=True, track_running_stats=True)
      (2): ReLU(inplace=True)
      (3): Linear(in_features=64, out_features=64, bias=True)
      (4): BatchNorm1d(64, eps=1e-05, momentum=0.1, affine=True, track_running_stats=True)
      (5): ReLU(inplace=True)
      (6): Linear(in_features=64, out_features=32, bias=True)
    )
  )
  (t_item_linear): Linear(in_features=384, out_features=384, bias=True)
  (v_item_linear): Linear(in_features=4096, out_features=4096, bias=True)
  (t_trans1): Linear(in_features=192, out_features=32, bias=True)
  (t_trans2): Linear(in_features=192, out_features=32, bias=True)
  (v_trans1): Linear(in_features=2048, out_features=32, bias=True)
  (v_trans2): Linear(in_features=2048, out_features=32, bias=True)
  (mlp): Linear(in_features=128, out_features=128, bias=True)
  (image_embedding): Embedding(23033, 4096)
  (image_trs): Linear(in_features=4096, out_features=64, bias=True)
  (text_embedding): Embedding(23033, 384)
  (text_trs): Linear(in_features=384, out_features=64, bias=True)
  (MLP_user): Linear(in_features=128, out_features=64, bias=True)
  (v_gcn): GCN(
    (MLP): Linear(in_features=4096, out_features=256, bias=True)
    (MLP_1): Linear(in_features=256, out_features=64, bias=True)
    (conv_embed_1): Base_gcn(64, 64)
  )
  (t_gcn): GCN(
    (MLP): Linear(in_features=384, out_features=256, bias=True)
    (MLP_1): Linear(in_features=256, out_features=64, bias=True)
    (conv_embed_1): Base_gcn(64, 64)
  )
)
Trainable parameters: 127029174
config['device'] cuda:1
12 Apr 02:40    INFO epoch 0 training [time: 55.66s, train loss: 73.6458]
12 Apr 02:40    INFO epoch 0 evaluating [time: 1.95s, valid_score: 0.039900]
12 Apr 02:40    INFO valid result:
recall@10: 0.0251    recall@20: 0.0399    ndcg@10: 0.0131    ndcg@20: 0.0168
…
