…
Average actions of items: 3.749589640707642
The number of inters: 20559
The sparsity of the dataset: 99.98071694707788%
23 Mar 00:24    INFO
====Testing====
baby
The number of users: 19445
Average actions of users: 1.1150424273592183
The number of items: 5549
Average actions of items: 3.907370697422959
The number of inters: 21682
The sparsity of the dataset: 99.97990552482683%
23 Mar 00:24    INFO
=================================
23 Mar 00:24    INFO =========1/1: Parameters:['seed', 'dropout', 'reg_weight']=(999, 0.8, 0.0)=======
23 Mar 00:24    INFO XFREEDOM(
  (t_proj): ProjectHead(
    (head): Sequential(
      (0): Linear(in_features=32, out_features=33, bias=True)
      (1): BatchNorm1d(33, eps=1e-05, momentum=0.1, affine=True, track_running_stats=True)
      (2): ReLU(inplace=True)
      (3): Linear(in_features=33, out_features=33, bias=True)
      (4): BatchNorm1d(33, eps=1e-05, momentum=0.1, affine=True, track_running_stats=True)
      (5): ReLU(inplace=True)
      (6): Linear(in_features=33, out_features=63, bias=True)
    )
  )
  (v_proj): ProjectHead(
    (head): Sequential(
      (0): Linear(in_features=32, out_features=33, bias=True)
      (1): BatchNorm1d(33, eps=1e-05, momentum=0.1, affine=True, track_running_stats=True)
      (2): ReLU(inplace=True)
      (3): Linear(in_features=33, out_features=33, bias=True)
      (4): BatchNorm1d(33, eps=1e-05, momentum=0.1, affine=True, track_running_stats=True)
      (5): ReLU(inplace=True)
      (6): Linear(in_features=33, out_features=63, bias=True)
    )
  )
  (user_embedding): Embedding(19445, 64)
  (item_id_embedding): Embedding(7050, 64)
  (image_embedding): Embedding(7050, 4096)
  (image_trs): Linear(in_features=4096, out_features=64, bias=True)
  (text_embedding): Embedding(7050, 384)
  (text_trs): Linear(in_features=384, out_features=64, bias=True)
)
Trainable parameters: 33575498
23 Mar 00:25    INFO epoch 0 training [time: 25.91s, train loss: 216.8442]
23 Mar 00:25    INFO epoch 0 evaluating [time: 1.05s, valid_score: 0.035500]
23 Mar 00:25    INFO valid result:
recall@10: 0.0233    recall@20: 0.0355    ndcg@10: 0.0121    ndcg@20: 0.0152
23 Mar 00:25    INFO test result:
recall@10: 0.0222    recall@20: 0.0332    ndcg@10: 0.0119    ndcg@20: 0.0147
…
