…
08 Apr 20:42    INFO
====Testing====
sports
The number of users: 35598
Average actions of users: 1.1244732850160122
The number of items: 13738
Average actions of items: 2.9137429028970736
The number of inters: 40029
The sparsity of the dataset: 99.99181486908563%
08 Apr 20:42    INFO
=================================
08 Apr 20:42    INFO =========1/1: Parameters:['seed', 'reg_weight', 'learning_rate', 'dropout', 'mask_weight_f', 'mask_weight_g', 'align_weight', 'temp']=(999, 0.001, 0.0001, 0.5, 1.5, 0.0001, 0.1, 0.2)=======
08 Apr 20:42    INFO SEA(
  (t_proj): ProjectHead(
    (head): Sequential(
      (0): Linear(in_features=192, out_features=64, bias=True)
      (1): BatchNorm1d(64, eps=1e-05, momentum=0.1, affine=True, track_running_stats=True)
      (2): ReLU(inplace=True)
      (3): Linear(in_features=64, out_features=64, bias=True)
      (4): BatchNorm1d(64, eps=1e-05, momentum=0.1, affine=True, track_running_stats=True)
      (5): ReLU(inplace=True)
      (6): Linear(in_features=64, out_features=32, bias=True)
    )
  )
  (v_proj): ProjectHead(
    (head): Sequential(
      (0): Linear(in_features=2048, out_features=64, bias=True)
      (1): BatchNorm1d(64, eps=1e-05, momentum=0.1, affine=True, track_running_stats=True)
      (2): ReLU(inplace=True)
      (3): Linear(in_features=64, out_features=64, bias=True)
      (4): BatchNorm1d(64, eps=1e-05, momentum=0.1, affine=True, track_running_stats=True)
      (5): ReLU(inplace=True)
      (6): Linear(in_features=64, out_features=32, bias=True)
    )
  )
  (t_item_linear): Linear(in_features=384, out_features=384, bias=True)
  (v_item_linear): Linear(in_features=4096, out_features=4096, bias=True)
  (t_trans1): Linear(in_features=192, out_features=32, bias=True)
  (t_trans2): Linear(in_features=192, out_features=32, bias=True)
  (v_trans1): Linear(in_features=2048, out_features=32, bias=True)
  (v_trans2): Linear(in_features=2048, out_features=32, bias=True)
  (mlp): Linear(in_features=128, out_features=128, bias=True)
  (image_embedding): Embedding(18357, 4096)
  (image_trs): Linear(in_features=4096, out_features=64, bias=True)
  (text_embedding): Embedding(18357, 384)
  (text_trs): Linear(in_features=384, out_features=64, bias=True)
  (MLP_user): Linear(in_features=128, out_features=64, bias=True)
  (v_gcn): GCN(
    (MLP): Linear(in_features=4096, out_features=256, bias=True)
    (MLP_1): Linear(in_features=256, out_features=64, bias=True)
    (conv_embed_1): Base_gcn(64, 64)
  )
  (t_gcn): GCN(
    (MLP): Linear(in_features=384, out_features=256, bias=True)
    (MLP_1): Linear(in_features=256, out_features=64, bias=True)
    (conv_embed_1): Base_gcn(64, 64)
  )
)
Trainable parameters: 105588124
config['device'] cuda:0
08 Apr 20:43    INFO epoch 0 training [time: 53.13s, train loss: 664.5986]
08 Apr 20:43    INFO epoch 0 evaluating [time: 2.65s, valid_score: 0.054300]
08 Apr 20:43    INFO valid result:
recall@10: 0.0343    recall@20: 0.0543    ndcg@10: 0.0175    ndcg@20: 0.0226
…
