…
Average actions of items: 3.749589640707642
The number of inters: 20559
The sparsity of the dataset: 99.98071694707788%
18 Mar 16:33    INFO
====Testing====
baby
The number of users: 19445
Average actions of users: 1.1150424273592183
The number of items: 5549
Average actions of items: 3.907370697422959
The number of inters: 21682
The sparsity of the dataset: 99.97990552482683%
18 Mar 16:33    INFO
=================================
18 Mar 16:33    INFO =========1/1: Parameters:['seed', 'reg_weight']=(999, 2.0)=======
18 Mar 16:33    INFO XVBPR(
  (t_proj): ProjectHead(
    (head): Sequential(
      (0): Linear(in_features=32, out_features=64, bias=True)
      (1): BatchNorm1d(64, eps=1e-05, momentum=0.1, affine=True, track_running_stats=True)
      (2): ReLU(inplace=True)
      (3): Linear(in_features=64, out_features=64, bias=True)
      (4): BatchNorm1d(64, eps=1e-05, momentum=0.1, affine=True, track_running_stats=True)
      (5): ReLU(inplace=True)
      (6): Linear(in_features=64, out_features=32, bias=True)
    )
  )
  (v_proj): ProjectHead(
    (head): Sequential(
      (0): Linear(in_features=32, out_features=64, bias=True)
      (1): BatchNorm1d(64, eps=1e-05, momentum=0.1, affine=True, track_running_stats=True)
      (2): ReLU(inplace=True)
      (3): Linear(in_features=64, out_features=64, bias=True)
      (4): BatchNorm1d(64, eps=1e-05, momentum=0.1, affine=True, track_running_stats=True)
      (5): ReLU(inplace=True)
      (6): Linear(in_features=64, out_features=32, bias=True)
    )
  )
  (item_linear): Linear(in_features=4480, out_features=64, bias=True)
  (t_item_linear): Linear(in_features=384, out_features=64, bias=True)
  (v_item_linear): Linear(in_features=4096, out_features=64, bias=True)
  (loss): BPRLoss()
  (reg_loss): EmbLoss()
)
Trainable parameters: 3531008
18 Mar 16:33    INFO epoch 0 training [time: 34.97s, train loss: 54.4585]
18 Mar 16:34    INFO epoch 0 evaluating [time: 4.73s, valid_score: 0.012300]
18 Mar 16:34    INFO valid result:
recall@5: 0.0011    recall@10: 0.0023    recall@20: 0.0045    recall@50: 0.0123    ndcg@5: 0.0006    ndcg@10: 0.0010    ndcg@20: 0.0015    ndcg@50: 0.0031
…
